checkpoint.pth (torch_old, 143954 bytes, 6 tensors)

fc1.weight f4 [256, 8]
00000000: f484 21be 315f 643f a305 ccbe f2c8 99bf
00000010: 96ff 3c3e 2c10 3f3e dfe3 e3bd 4f47 b53e
00000020: 7a9b 1a3f a004 abbd 23c4 1d3d 2e06 a7be
00000030: 473b 44bf 9304 11bf 46c3 1bbf cf0c a3be
00000040: d07d f4bd e7c0 44be f357 fbbd 68b6 29bf
00000050: 7c59 903e d7fb 2a3f f4bb e7bd 319f 0b3f
00000060: 1643 093e b384 37be 37f2 4e3e 9c6a 0fbf
00000070: 6613 bfbf c170 cfbe 34f6 3a3e 9ad6 6a3e
00000080: f708 cfbe 013d 78bf ca48 36bf b112 0dbf
00000090: 6584 38bd e503 b83d 13d8 aa3d 2d82 7f3c
000000a0: 10d8 993e 2117 cfbe fd1b c03e effa 35bf
000000b0: 0fb9 c1be 7d3e a7be dc41 533e 172f cd3e
000000c0: c7e4 0b3a b148 84bb a769 6b3d b76a e53b
000000d0: cece 3b3f 6f9b 923e 63e9 fe3e a910 00bf
000000e0: 8f56 923d b09f e0bd 9c4c 2fbf 303c 9cbe
000000f0: f0d7 ab3e af47 af3e 0c11 67bd c245 703e
00000100: b5ec f63d a2c3 8c3b 1c4a 293e 842b 803d
00000110: 80ca f33e 9216 503f 235c a8be ef6f d4be
00000120: 54fc ea3d bd50 ec3d 8eba a43e 8c99 4f3f
00000130: 74f2 6abe 3ff9 f9be 8b18 41bd 216d babe
00000140: 79fa ccbe 1689 1a3f 1f96 c73d efc8 1dbf
00000150: ee9e 173e 518c 01bd 2eaf 143e 0e0c f3bd
00000160: 4ec5 923b a8c3 8d3d d491 013e cf68 aabd
00000170: c8d3 e23e 7025 1b3f fc2a 9ebe d3e3 5bbf
00000180: 5746 f53e 5eaf 11be bc73 f6bc 1ed0 09bf
00000190: f9c9 643f 9998 3a3f 8bde 063e dd67 823d
000001a0: 6c79 89bf 2ebb 2dbe 03ed 4fbf c5f3 1fbf
000001b0: 645d 63be adcb a8be 282b dcbb e693 bd3e
000001c0: 246e 9abe 1646 2a3f 443b fc3e fcab e8be
000001d0: a812 87bd b1f4 633d 1089 283a 3396 4c3e
000001e0: 63a0 f83d bdba e2bc 5e65 0ebf f708 e43e
000001f0: 2cf4 e4be ffd7 2abe 0a1a 3a3e f00c bdbe
00000200: ef09 c4be 9eff 9e3c f788 7fbe e366 98be
00000210: 633f 5bbf e267 013d 5812 fe3d 2f54 eabd
00000220: 4621 553d 0c3c 6dbe e7bd dc3e 4d6b 46bd
00000230: 5543 bf3e 1a5f 053f f204 b93e ff14 01be
00000240: 3f1f dcbe 4144 293e b2af 693e ca80 c23d
00000250: 5409 59bf b987 f0be f5ca f6bd b850 29bf
00000260: 503e 4ebe 377b 2b3f 10f8 983d e1c2 1dbf
00000270: 9adf 9b3e 972a 8cbe a863 aebe c351 063e
00000280: 0b8e cabd b474 da3d 8ec1 3cbe 7d11 98bf
00000290: 2ad9 e7bd a07c 9ebd f6ae c53d 5021 51bd
000002a0: 74db b8be d61d e6bc 2bb7 34be 7200 45bf
000002b0: f500 ce3e aee1 1e3f a6bf 8abd b1f2 633d
000002c0: b241 103d 280c 5ebd a82f 913e 43ab 47bf
000002d0: 6db4 23be 948a bebd 50be 9c3e bc2c 083d
000002e0: 01f9 db3d d2bf 193e 118a 97be 8014 c73c
000002f0: 0647 aebe 78e0 393e 1562 5d3e aae0 c53e
00000300: d571 12be 0166 c43e c17f 34bf e4d4 e6be
00000310: 07b2 7c3d 3c6f 433e 5a64 64be 5077 5fbd
00000320: 690a 833e 63c5 7e3e dfd7 90be abca ddbe
00000330: 2e16 d3be c158 5a3e 535f 3bbe 90b8 c93e
00000340: 1e2e 963e f2e1 f73d c84f 2abd fd1a a0be
00000350: 6bbd cdbd b3d7 fbbd 9279 75bd 33bc 9c3d
00000360: 87e7 88bb 032b 33bf ffd1 683e 6362 0abf
00000370: e866 253e a7ae ff3c aa0f f53d 4ea9 a33c
00000380: 7842 e6bf 5019 de3e 384f 29bf 61ab 9bbd
00000390: df42 1dbe fa7b 97bd 6e76 9f3c 4674 ec3c
000003a0: 75c5 cd3c 37b9 07bc 9485 a73f db20 a0be
000003b0: 9736 933c d7c0 9abc fbd5 95be ce17 c23e
000003c0: 9ed8 bb3d 49a1 f93e f467 fbbd 980a 29be
000003d0: 4dc9 ef3a 4577 0cbf e347 c13e 8a09 a3be
000003e0: 0c10 6a3d 9781 b63e ca32 14bf 855d 97bc
000003f0: 01a3 0d3f 756b 2d3d aad2 87bd 07a1 d4be
-0.15773374 0.8920775 -0.3984805 -1.2014449 0.18456873 0.18658513 -0.11127447 0.35405967
0.6039349 -0.083504915 0.03851713 -0.32621902 -0.7665295 -0.56647605 -0.6084484 -0.3184571
-0.11938059 -0.19214211 -0.12272634 -0.66293955 0.2819327 0.6679053 -0.11315146 0.5453978
0.13404498 -0.17921714 0.20209585 -0.5602205 -1.4927795 -0.40515712 0.18257982 0.22933426
-0.40436527 -0.96968085 -0.7120482 -0.55106646 -0.045048136 0.08985118 0.08341994 0.015595001
0.30047655 -0.40447333 0.37521353 -0.7108602 -0.378365 -0.32664862 0.20630592 0.4007499
0.00053365197 -0.004036986 0.057473805 0.007001247 0.73362434 0.2863421 0.49787435 -0.5002542
0.07145416 -0.10967958 -0.6847627 -0.3051467 0.33563185 0.34234378 -0.05641274 0.2346411
0.12056867 0.004295782 0.16532177 0.062583 0.47615433 0.8128444 -0.32882795 -0.4149165
0.11473909 0.11538837 0.3217358 0.8109367 -0.22944051 -0.48822972 -0.047142547 -0.36411384
-0.40034845 0.60365427 0.0974543 -0.61634725 0.1480672 -0.031627957 0.14519951 -0.118675336
0.004479087 0.06922084 0.12653285 -0.08320772 0.443022 0.60604 -0.3089217 -0.8589451
0.47905228 -0.14227054 -0.030084483 -0.53833187 0.89370686 0.72889096 0.13170831 0.063674666
-1.074018 -0.16965935 -0.81221026 -0.6248134 -0.22203594 -0.32967892 -0.006719012 0.370269
-0.30162156 0.6651319 0.49263966 -0.45443714 -0.06595355 0.055653278 0.00064291153 0.19979171
0.12139966 -0.027676934 -0.55623424 0.4453809 -0.44717538 -0.16683958 0.18173996 -0.36923933
-0.3828883 0.019408997 -0.24954592 -0.29765996 -0.85643595 0.03159321 0.124058425 -0.11441838
0.052033685 -0.23167437 0.43113634 -0.048442174 0.37356058 0.5209824 0.36136585 -0.12605666
-0.4299259 0.16529943 0.22820929 0.09497221 -0.8477986 -0.46978548 -0.1205043 -0.6613879
-0.20140958 0.66984886 0.07469189 -0.61625487 0.30444032 -0.27376243 -0.34060407 0.13117127
-0.09890374 0.106667906 -0.1843321 -1.1880337 -0.11320718 -0.07738614 0.09652512 -0.05105716
-0.3610493 -0.028090399 -0.17647998 -0.76953804 0.40235105 0.6206311 -0.06774835 0.05565137
0.035218902 -0.05421081 0.2835667 -0.779957 -0.15986796 -0.093037754 0.30613947 0.033245787
0.10740853 0.1501458 -0.29597524 0.024301767 -0.34038562 0.18152034 0.21619447 0.38647968
-0.14301236 0.38359073 -0.70507437 -0.45084298 0.061693218 0.19085401 -0.22303906 -0.054557145
0.2559388 0.24879985 -0.28289697 -0.43318686 -0.4122786 0.2132292 -0.18298082 0.39398623
0.2933206 0.121036425 -0.04157999 -0.3127059 -0.10045894 -0.12297001 -0.05993039 0.07653084
-0.004177991 -0.69987506 0.22736357 -0.54056376 0.16152537 0.03121121 0.11965878 0.019978192
-1.7989035 0.43378687 -0.66136503 -0.07601047 -0.1535754 -0.073966935 0.019465651 0.028864037
0.025118569 -0.008283905 1.308764 -0.31275067 0.017970366 -0.018890781 -0.29264817 0.37908787
0.09172176 0.48755863 -0.12275687 -0.16507947 0.0018294245 -0.5486949 0.37750158 -0.31843215
0.05714421 0.35645744 -0.5789 -0.01847721 0.5532685 0.042338807 -0.06631978 -0.41529104

fc1.bias f4 [256]
00000000: dd25 1cbd 3168 29be 7a8d a8be 577a 63be
00000010: a038 353e 8788 e4bd 2e9e 8c3b 7345 ab3e
00000020: d160 e53e ef6e 6a3f cae7 19bf 450a 733e
00000030: 4012 c03e 003d 933e 1c27 493e 3b7a fb3e
00000040: c9a9 943d ba0e e13e 90e3 30bf 3ad4 fdbd
00000050: 2342 7cbe 7608 f0be 37ce 33be 9514 f23e
00000060: 0416 16bf a572 003f bd62 2b3f c18a a73d
00000070: 7dd0 c4bc 8a83 09bc 765b e83e 9fe8 6b3d
00000080: 6164 b53c 9351 e83d 55fe 1bbf 3875 b93e
00000090: eb8e 7f3e 6f53 16be 4fb5 b1be df64 073f
000000a0: 14dc 87be fdba b1be fd87 07bf fb94 b8be
000000b0: 371f 283f 0b9d 9ebe 3b4c 1e3f b034 623d
000000c0: 819e 0c3f 2356 b23e 9c2f b0be 4eaa d73e
000000d0: 2d0d 3dbf ec4f 973e 2f68 653e af34 483e
000000e0: 4872 be3e f6f3 193f ae4c b03b 5475 bebe
000000f0: a072 2b3e feaf cc3d e7ce 6f3e bba2 1a3f
00000100: 9144 ad3e 2005 a63e 9e34 443e 2ec4 a43e
00000110: f997 20bf 7b5d 61be 0c11 173e 6f69 5f3e
00000120: fd9c 353e 4fff a73e c616 07bd 1f3e ea3c
00000130: 4d94 953d 3b9c ba3e b8d3 bd3e af7f 233e
00000140: e6ca 7b3e 198e d9be 98b1 8e3d 75e0 033e
00000150: 4111 66be 7417 913e c5d7 f3be 66a4 bc3e
00000160: ae27 933e e197 63bd fc5b 783e 1b05 e63e
00000170: 0b98 1abe f464 383f 9eae c43d 1f8e a23d
00000180: 8e17 9ebe 02d6 28be ca6a fd3d 580e d9be
00000190: 7a23 96be 2199 ad3b b69e 123f 5609 f43e
000001a0: 6fc6 b33e 6b90 963c 232e d2bd edc7 b3be
000001b0: 03b5 d73d f130 ebbe 4277 683e ac4d a73e
000001c0: 2009 933e a792 76bd 18dd edbe d645 913e
000001d0: 684a 1fbf 071d bfbe cf61 833d 7e01 b83e
000001e0: b724 8dbe 5225 c73e 605f e1be d4f8 56be
000001f0: a0fa b63e cdb5 c53e 763c 463e 089c f73e
00000200: dd9d bf3e 86fd ab3e 8ed9 f9bd 4e92 8e3d
00000210: 9a9e 8e3d 91c2 a3bb e77d 0cbd 173f 08bf
00000220: 2554 5b3d 622e ee3d 4207 613e 9d77 083f
00000230: 4b15 893e 1b77 393e e129 433d b867 553e
00000240: fe52 003e f323 44bc 5c0c ab3e 8c02 75bd
00000250: 7603 7d3d 8b5b 393c ed19 853e d035 353e
00000260: 3fff 843e 9620 603c 70ab 123f 0cd6 043f
00000270: 5768 13be 2e88 ab3e 19d4 4bbd 0204 abbd
00000280: 6c48 b13c 43fb e6bb 7fb3 bf3d ebc7 8d3c
00000290: bb21 ed3e 8c18 c2bb 325e c53d 3726 3dbd
000002a0: 94db 803e 3476 c33c dbb5 a5be b49d 713e
000002b0: 2773 193f 5a5b 83be cc8d e1bc 9bdf 3f3d
000002c0: 2ef6 a33d 4d97 3cbe 1824 e63e d176 69be
000002d0: a391 4f3f e4f2 693e 140a d93c 45d0 a23e
000002e0: 089a 133d feab b6be 81db 39bf ab98 9b3e
000002f0: 36fc b73e 1a0f f43e d4c5 143f 8d09 913e
00000300: 363a 273e e148 9cbe dd91 d1be a256 d8be
00000310: 6498 be3d cbeb d03e 71c9 bbbe 6fdf 7dbe
00000320: e4df 4cbe dcf7 aabe 722f a9be 3048 263f
00000330: 994b 873e 5d13 af3e 27ce be3d f586 f33b
00000340: 345f b23e 7fd5 69bd 8c42 11be 0aed fd3e
00000350: e9e5 cb3e fb14 b13d a566 1a3e 9e2f 3d3e
00000360: 0606 a93e ec9d febe a3f5 17bd 9d25 a43e
00000370: 19e3 fdbd 18e4 db3d a292 9a3e 86bd 673e
00000380: f812 6b3e 25d0 45bc c2bd 3f3e 45c8 013f
00000390: 4b27 de3c cf10 e1be b353 d43d b833 643d
000003a0: e6ea 543e 71c5 353d b243 bbbd ca1e 873b
000003b0: e6d7 ae3e 1387 35bf cc60 893d c923 ec3e
000003c0: 0f03 92be d545 2fbe 704a ed3e 50d2 153f
000003d0: 212e b93e 1d1f ff3e 640f d93e 6a15 f7be
000003e0: 3cd5 2e3e 2f21 bf3e 8003 363f e74b 7fbe
000003f0: 9636 45be 07ba 9abe 9c4c a93e 1676 be3e
-0.038122047 -0.16543652 -0.32920438 -0.22214638 0.17697382 -0.11158853 0.0042913174 0.33451423
0.44800428 0.9157552 -0.6011931 0.23734386 0.37513924 0.28757477 0.19643825 0.49116692
0.072589464 0.43956548 -0.6909723 -0.12393995 -0.24634604 -0.46881455 -0.17559133 0.47281328
-0.58627343 0.50174934 0.6694754 0.08180762 -0.024025196 -0.008393178 0.4538228 0.05759489
0.022142591 0.11343684 -0.60934955 0.36222243 0.24956863 -0.14680265 -0.3470864 0.5288829
-0.26535094 -0.34712973 -0.52941877 -0.36051163 0.6567263 -0.3097919 0.6183507 0.055226028
0.5492936 0.34831342 -0.34411323 0.4212212 -0.7384823 0.29553163 0.22403024 0.19551347
0.37196565 0.6013788 0.0053802347 -0.3719889 0.16742945 0.09994505 0.2341877 0.60404557
0.33841375 0.32425785 0.19160697 0.32180923 -0.6273189 -0.22008316 0.14752597 0.21817563
0.17735668 0.32811972 -0.032980703 0.028594075 0.07303677 0.3644732 0.3707559 0.15966676
0.24589118 -0.42491224 0.06967467 0.12878592 -0.2246752 0.28338206 -0.47625557 0.36844176
0.2874121 -0.055564765 0.24253839 0.4492577 -0.15097062 0.7202904 0.09603618 0.07937264
-0.30877346 -0.16487888 0.12373884 -0.42393756 -0.2932394 0.0052977954 0.57273424 0.47663373
0.3511233 0.01837941 -0.10262706 -0.3511347 0.10532572 -0.45935777 0.22701743 0.32676446
0.287179 -0.060198452 -0.46457744 0.28373593 -0.6222291 -0.37326834 0.0641514 0.35938638
-0.27567074 0.3889566 -0.44018078 -0.20993358 0.35738087 0.38615265 0.19359002 0.4836123
0.37425128 0.3359186 -0.121996984 0.06961499 0.069638446 -0.0049975594 -0.034299757 -0.5322127
0.053547043 0.116299406 0.21975425 0.53307515 0.26774058 0.18111841 0.04764736 0.20840347
0.12531659 -0.011971462 0.33407867 -0.059816882 0.06177088 0.011313329 0.25996342 0.17696309
0.25975987 0.013679644 0.5729284 0.5188911 -0.14395271 0.33502334 -0.04976282 -0.08350374
0.021640979 -0.0070489957 0.09360408 0.017307242 0.46314797 -0.0059233364 0.09637107 -0.046179023
0.25167525 0.023860075 -0.32365307 0.23595315 0.59941334 -0.25655633 -0.027533434 0.046844106
0.080059394 -0.18417092 0.44949412 -0.22799231 0.810816 0.22846562 0.026494063 0.31799522
0.036035568 -0.35678095 -0.7260056 0.30389914 0.3593461 0.47667772 0.5811436 0.283276
0.163308 -0.30524352 -0.40931597 -0.42253596 0.0930641 0.40804896 -0.36677125 -0.24792264
-0.20007282 -0.33392227 -0.3304401 0.649539 0.26424864 0.3419446 0.09316664 0.0074318596
0.3483826 -0.05708837 -0.14185542 0.4959491 0.39823845 0.0864658 0.15078218 0.18475196
0.33012408 -0.4972986 -0.03709949 0.32059947 -0.12396831 0.10736865 0.30189997 0.22630891
0.22956455 -0.012073551 0.1872473 0.5069621 0.027118346 -0.43958136 0.10367527 0.055713385
0.20792732 0.044377748 -0.09143771 0.0041235434 0.34149092 -0.7090923 0.06707916 0.46121052
-0.2851796 -0.17116483 0.46345854 0.58524036 0.36168006 0.49828425 0.42394555 -0.48258525
0.1707353 0.37330005 0.7109909 -0.24931298 -0.19259104 -0.30220053 0.3306626 0.37199467

fc2.weight f4 [128, 256]
00000000: 8f58 1d3e d6e3 2bbf afcc 003e be36 44be
00000010: e4b0 6c3d 8f75 833e 28a0 ee3e e86f 3f3e
00000020: 08ae e13c 5459 90be 799f 3abf 272b de3d
00000030: 6eb3 32bd a444 b8bd 5c05 133e e920 cabe
00000040: dc0c fd3d ad09 bc3d 0fd7 603e e828 98be
00000050: 7840 f23e 9bb6 113d 814b e43d 9fc3 143e
00000060: 60e1 39bf ae9c e03d 6b2f ea3d 03e2 a2bc
00000070: 314d 4a3f 1abe fbbe 29fd 7dbe 3209 983e
00000080: 59cb 6d3e 2899 863e 949a 903e bbad 5dbe
00000090: 4c60 673e 8387 993e c86c 8c3f 134a 0c3e
000000a0: 834d af3d 0126 c33d e67b 9d3e a8c0 59bd
000000b0: 650c 1cbe c17a a53d a57b 22be 99ac f33e
000000c0: 1812 d43c 9502 3dbe c6e5 9dbe bb51 e23d
000000d0: fced 5cbf 991c 7f3e 8429 1ebf db73 04be
000000e0: 76d2 0c3c f768 77bd 589b 5d3e 422a 1a3f
000000f0: 3ba5 57bd 141b d3bd 5bbe c9bd b78a 09bf
00000100: 82a9 a33e 61d9 193e c56d 463e ede2 17bf
00000110: cd93 d33e 10c3 0f3e 6a61 b73d 2c5a 453e
00000120: 7d31 9a3d 1b1f ee3d 95de 80bb 46a1 ec3e
00000130: 32aa 5f3d 9831 913e 9c3e 4c3e 8ee6 bb3d
00000140: 377d 383e fc6c 61bf 5376 4fbe 685f 4e3f
00000150: f24e 0c3e 9e09 3f3e baec a83e 6461 f83d
00000160: eca4 e83c 9acd 773e 090d c23c 2eed 053c
00000170: 393f 813e d003 113e 22a3 2fbe 445a ccbe
00000180: 0411 9f3e d54b 593e f295 0f3e 9890 2dbf
00000190: f2fb bd3d e985 88be f546 8dbc c1c5 2b3d
000001a0: cfd4 dd3d 1ec9 503e f5c3 76bd 6b15 d73e
000001b0: ea02 d33b e61c 453e f5c2 a23e 7793 083f
000001c0: c867 82bc 013a 593e 9245 063d 287d c9be
000001d0: 7459 b63d 4e5a 133d 1f43 1fbe 1389 ddbe
000001e0: bdd8 023e ffec 3abd b73e 2dbf 7c8b 3a3e
000001f0: 49b4 2e3e 4754 aabd 40ad 883d e1de 1b3d
00000200: 7e20 e7bd a232 083f 4843 3a3e a025 5a3e
00000210: 3bc5 ed3c fe62 2f3d f0f6 0b3e 45d2 293e
00000220: bc01 963e 3b90 ae3d de3b a73d c7d8 88be
00000230: 9bc8 9bbe 7042 9c3e 5ca3 d3bd 4914 2f3e
00000240: 2eeb c73d 0ada 3ebf e7a3 e7bc c109 fcbd
00000250: fc81 5cbe 06c1 12bd 5059 713e 0808 1ebf
00000260: 92f8 d2bd 8d2d f93d 59e7 263e 8397 0abd
00000270: ea33 863d 1590 3abd 4984 be3e 265b 873d
00000280: f3bc 7d3e 52c5 a33e 65ee 053e e84d 603e
00000290: c65f db3d af53 edbe 13fc 08bd ab1a fb3d
000002a0: 45e7 013c 85af 573d c139 ed3e 95d5 d3be
000002b0: e883 933d d554 b63e efa9 263e 53e2 863e
000002c0: 26bc b53d a22d 1d3e 4dd5 b0bd 84e4 9f3c
000002d0: 3bd2 123d c0ab 013f cf2f 873f 60db 643e
000002e0: 898c 1a3e cc03 51be ce3f 8fbd b950 eabd
000002f0: 82ea c5bb de28 073d c71c adbc abcb 0a3e
00000300: ed75 24be 1f9c febe 4ca4 edbc 2c34 2fbf
00000310: f737 ba3e 1d5e 783d 86ee 133e 89fb 02bd
00000320: 1313 bebe 8746 e43e 56be 423e 1405 833c
00000330: 615f a5bd 8015 163e 74a5 3c3e 625c 713e
00000340: 6254 e33d 16c5 3b3f b0ed a23e c447 993d
00000350: 7b1b 09be 6ddc d43d 9104 d03d c8b9 343e
00000360: e59f 073e a07d f1be 623a 6d3e 0a14 1d3e
00000370: 3cbc a63e 8b9e 463d 99f0 903d cf29 a0bd
00000380: 3472 593d d65a b8be ad7a fc3c d640 993d
00000390: 14a7 abbe ba7e e63d ad6f 7e3e 5e6b ea3d
000003a0: f8a6 643e 6f9c a03e 9c5b f8be f450 81be
000003b0: 7fc5 c33e 29a4 023f c8dd 1abf c1a0 013d
000003c0: 42ab 123e 16f7 613d b0ea 95bd 62b8 5e3e
000003d0: 815a 843c 2abf b1be b856 f13c 81ff 8d3e
000003e0: f1da b0be 99a7 c43d 962d 033f 2d5c 37bd
000003f0: 4a3f d4be 4b81 da3e cc38 b0be 6a0e 783e
0.15365814 -0.67144525 0.1257808 -0.19161507 0.057785884 0.25675628 0.46606565 0.18695033
0.027548805 -0.28193152 -0.72899586 0.108480744 -0.04362815 -0.08997467 0.14357513 -0.39478233
0.12355968 0.09181533 0.21957038 -0.2971871 0.4731481 0.035574537 0.11147214 0.14527749
-0.7260952 0.10967384 0.114348255 -0.019883161 0.79024035 -0.49168473 -0.24803604 0.29694515
0.23222102 0.26288724 0.28242934 -0.21648304 0.22595328 0.299862 1.0970697 0.13700132
0.08559706 0.09528733 0.3075859 -0.053162247 -0.15239103 0.08080054 -0.15867479 0.4759262
0.025887534 -0.18458016 -0.30839366 0.11050745 -0.86300635 0.24913253 -0.617821 -0.1293482
0.0085951 -0.060402837 0.2164129 0.6022073 -0.05264781 -0.10307899 -0.098507605 -0.5372729
0.31965262 0.1502433 0.19377811 -0.59330636 0.413237 0.14039254 0.08954127 0.19272679
0.075289704 0.11627027 -0.003932784 0.46216792 0.05460567 0.2835815 0.19945759 0.09174834
0.18016516 -0.8805692 -0.20259981 0.8061433 0.1370199 0.18656012 0.32993108 0.12127951
0.028398953 0.24199525 0.023687856 0.008174224 0.25243548 0.1416161 -0.17152074 -0.39912617
0.3106767 0.21220334 0.14022043 -0.6779876 0.092765704 -0.26664665 -0.017245749 0.04193664
0.10831606 0.2038922 -0.060245473 0.42008528 0.0064395564 0.19249305 0.31789365 0.53350013
-0.015918627 0.21213533 0.03278119 -0.393533 0.089037806 0.035974793 -0.15552948 -0.43268642
0.12777992 -0.045636173 -0.6767382 0.18217272 0.17060961 -0.08316856 0.0667367 0.03805435
-0.11285494 0.5320226 0.18189728 0.21303415 0.02902471 0.042819016 0.13668418 0.16584118
0.29298198 0.085236035 0.08165716 -0.26727888 -0.30426487 0.30519438 -0.10333893 0.17097582
0.09761654 -0.7455145 -0.028276397 -0.12306548 -0.2153396 -0.035828613 0.23569226 -0.61731005
-0.10301317 0.12166891 0.1629919 -0.0338359 0.065528706 -0.045547564 0.372103 0.06609182
0.2477911 0.3198648 0.13079222 0.21904719 0.10711627 -0.46352908 -0.03344352 0.12260946
0.007928674 0.052657623 0.46333125 -0.41373888 0.072028935 0.35611597 0.16275762 0.26344547
0.08873777 0.15349439 -0.08634434 0.019518144 0.035845023 0.50652695 1.0561465 0.2234931
0.15092672 -0.20411605 -0.06994592 -0.11441178 -0.0060399184 0.03299796 -0.021131886 0.13554256
-0.1606061 -0.49728486 -0.029009007 -0.6843898 0.36370823 0.06063663 0.14446458 -0.031978164
-0.37123927 0.44585058 0.1901792 0.015993632 -0.08074833 0.14656639 0.1842249 0.23570397
0.11100079 0.73347604 0.31821966 0.07484391 -0.13389389 0.103936054 0.10157121 0.17648995
0.13244589 -0.47166157 0.23166803 0.15339676 0.32565486 0.048491042 0.0707714 -0.07820474
0.05308743 -0.36006802 0.030820215 0.074830696 -0.33525908 0.1125464 0.24847288 0.1144626
0.22329319 0.3136935 -0.48507392 -0.25257075 0.38236615 0.5103174 -0.6049466 0.031647447
0.14323142 0.05516728 -0.07320154 0.21750024 0.016156437 -0.3471616 0.029460296 0.27733997
-0.3454204 0.09602279 0.51241434 -0.04476564 -0.41454536 0.42676768 -0.34418333 0.24224249

fc2.bias f4 [128]
00000000: fbe5 993d 4ff1 713b ef69 83bd cb0b 343e
00000010: 1221 d33e 6557 843d 8d6f 443c ae3e 3fbd
00000020: 8c28 a33d 5799 0a3d 0fcf 84bd bf52 ee3e
00000030: f39d 1c3d 9462 783d f881 7e3e c73d 333e
00000040: e382 93bd 3482 26bb 91eb e6bc 85aa 623b
00000050: 32c8 b4bc ec31 4c3c b92e 723d 8ae0 c1bc
00000060: 613d f1bd a20b 183e 9bc1 e4bd 689a 2b3e
00000070: bf03 313d aaef 873d bd0f 46bd 8d4c be3e
00000080: 881b 973e b3c1 08bc 308d dbbc 0fd4 2b3d
00000090: d9a9 7ebd 29c0 dd3d 71b7 a33d 9b7d ab3e
000000a0: f894 aebb 1fef de3d d81a 4ebd 0d65 013d
000000b0: 618e a9be 1126 12bd 45d6 ddbe 8dca f83e
000000c0: 7de7 c5bc 9398 cd3d fbee 8e3d aaa9 8c3e
000000d0: ba3a dcbc 24f7 ba3d 9be3 eb3d 909e be3d
000000e0: 450a 133e b586 193e 7adf d0bd 6ae4 8cbe
000000f0: f24f b93e 997d 75bd 5298 4fbc 7a46 b23c
00000100: e54c 163f 7f32 1c3f 50fa 3a3e 0e6d cd3e
00000110: 586f a73c 80e7 343b d7bb 803e 3be0 0d3d
00000120: 5e8c 87bd e08c 8b3e 762f 2c3e 65dd 033d
00000130: 94f6 073f 2cfd e73e dec9 363d 69c3 873e
00000140: a164 b63c 7f01 fe3b 4ec3 183d 2f68 d03b
00000150: fba5 593d 0356 fbbe eb13 73bc 0bfa 6c3e
00000160: aa3d a7bd 41cc 033d 81ff 93bc dc8e 6bbe
00000170: a5ef 273e 0bbf 383e d72b 913c b7a5 c93e
00000180: b853 10be 6eea cc3d b369 50bc bad0 09bd
00000190: 5897 593e 61b1 e3bc cc5b b33e a890 703e
000001a0: 0072 243d 9d40 123e 6e65 c1bc 7e01 843c
000001b0: 0605 a3bb fcdd ca3c 4426 64bd 0464 ebbc
000001c0: 2f24 883b 4311 073d a909 843c fff0 1f3e
000001d0: 360a 253d 463a ab3a bcda 633e a3a9 e5bc
000001e0: 8a7d 03be 17b3 80bd c0a7 873d ca80 ddbd
000001f0: 8dc1 8bbd 22c8 583e f938 d4bc cb81 d9bd
0.075145684 0.0036917513 -0.064166896 0.17582624 0.41236168 0.06461982 0.011989486 -0.046690635
0.07966718 0.033837643 -0.06484806 0.46547505 0.03823657 0.060640886 0.24854267 0.17504035
-0.07202699 -0.0025407197 -0.028188499 0.00345865 -0.022068117 0.012463074 0.05912659 -0.023666639
-0.11779285 0.14848188 -0.1116974 0.1675812 0.043216463 0.06637509 -0.048354853 0.3716778
0.29513192 -0.008346963 -0.026800722 0.04195028 -0.062173698 0.10827667 0.07993973 0.33494267
-0.005327817 0.108854525 -0.05031857 0.03159051 -0.3311644 -0.035680834 -0.43327537 0.48592034
-0.024158234 0.10038867 0.06979176 0.27473193 -0.026883472 0.091291696 0.11518022 0.09307587
0.14359386 0.14992793 -0.10198875 -0.27518016 0.36193806 -0.059934232 -0.012670593 0.021762121
0.5871108 0.6101455 0.18259549 0.40122265 0.020438835 0.0027603805 0.2514331 0.03463767
-0.0661857 0.27255917 0.1681498 0.03219356 0.53110623 0.45310342 0.04462611 0.26516274
0.02226478 0.007751643 0.037295632 0.006360076 0.053136807 -0.4908906 -0.014836292 0.23142259
-0.08166058 0.032177214 -0.01806617 -0.23003715 0.16400011 0.18041627 0.0177211 0.39384243
-0.14094436 0.100056514 -0.012720513 -0.033646323 0.2124914 -0.027794542 0.35030973 0.23492682
0.04014778 0.1428246 -0.023607936 0.016113993 -0.004974964 0.024764054 -0.055700555 -0.028734215
0.004154704 0.032975446 0.016117888 0.15619276 0.04029294 0.0013063631 0.2225141 -0.02803499
-0.12840858 -0.06284159 0.06623793 -0.1081558 -0.06824026 0.21170095 -0.025906073 -0.10620459

fc3.weight f4 [4, 128]
00000000: aaaf afbe 6f3b 543d 2f85 a4be bf28 a3be
00000010: 04b8 a03f cb5a ccbe d6b2 debe d23b 58be
00000020: 7969 d23f 7e5b c3be afe3 e9be 4009 a63f
00000030: 2e6a 833e 3ed5 d3be e0ff e4bd 7335 f63f
00000040: c5ff b3be 9358 4e3d f3c0 b8be 9cbe 64bf
00000050: 6914 58bd fb58 cdbe e96d ddbe 6fa9 083c
00000060: 506d 0bbf b2d6 40bf c82b 2b3f 3ac0 b23f
00000070: a5f4 6bbe 9c69 79be 373d f3be fa4e ad3f
00000080: f821 b03f 004d 19bf 8e43 bbbe d3bb 80be
00000090: 2a9c 383d fde7 cb3e a5aa b9be c94f c43f
000000a0: 4337 8fbe 8447 5ebf ee3f c8be a08c cf3f
000000b0: 6dc6 863e a606 d1be 31a5 8e3f c38f 83bf
000000c0: fcb0 0fbd fb62 d6be 26d8 8d3f f4e1 0f3e
000000d0: 1b16 c3be 6793 9fbe 8b1b a1be f95d b4be
000000e0: 2c37 64be 089b f33e 005a 1abe 42c2 3bbe
000000f0: 7d38 98be 01b9 003a 41f0 a7bc 49d1 953d
00000100: 9453 673f 3128 08bf ac18 a8bd ecf8 093f
00000110: 6300 aa3d c119 9abe f3fa 103f f0be a9bf
00000120: ca1e 433d e2c1 e33f ff62 b9be eed6 833f
00000130: ba27 0440 8ad4 c03f e9c3 863d f530 d63d
00000140: 9c61 aebe 1ff9 7ebd 25d9 d3be 69b2 d2be
00000150: bc4e b6be 6671 2fbe 5e5a a3be 4da7 943e
00000160: e157 4d3e 84f6 953f b694 dabe c1d1 a03d
00000170: 0f24 cabe 3141 883f 8e56 00bf dfa4 a8bf
00000180: e3be a5be df02 a73f a523 c5be 478d c73e
00000190: b9b5 0540 2bce 533d fcb9 b23f c195 ebbe
000001a0: 51d9 693c 07db 63be 3991 cdbe e124 e13a
000001b0: a7b9 cdbe e945 84be f2a0 b1be 8c91 babe
000001c0: 7d98 f23e 6ca3 46be 129c 9cbe 3e65 933e
000001d0: 9067 a5bd d98b 95be 9ee0 913f f630 753f
000001e0: eaad c63c cc03 adbe 3477 b5be ccca dbbe
000001f0: 7c65 0a3d 268d e53f 746d 7bbe 7076 9bbd
00000200: 0ed8 cdbe f554 b23c 9a27 c6be 322d edbe
00000210: 72c9 613f 2d02 8dbe a693 d2be e4d7 16bf
00000220: 0020 e53f c55b bdbe 5ae9 b0be 4d2d cc3f
00000230: 76d1 483d c809 9ebe 69d8 1fbf cf25 fa3f
00000240: 277b 75be c6bf 873d e71d 34be 5a1f d53e
00000250: a748 9e3d e9e5 22be 2fd7 abbe 10b4 05bd
00000260: 0fd2 adbe 181e 29bf 2478 2f3f 9645 943f
00000270: 5b87 cabe 96fc f9be 66b4 73be 4489 b13f
00000280: ec04 a73f d522 6abd c62b b6be 6556 08be
00000290: 7ae5 df3b edde 3d3f c3d1 9fbe ec01 d33f
000002a0: 4b44 a2be a9c9 ee3f 20e6 a5be deff c63f
000002b0: 85d1 9cbf b612 15bf e4dd 5e3f 38b3 8ebf
000002c0: 60ff be3c 9f63 a8be c059 9e3f 7d0a 80bf
000002d0: ceed 8ebe e2ad b7be fb74 0fbf 4531 d7be
000002e0: c1d0 87be fdb0 4f3f 0e3f afbe ad58 8bbe
000002f0: 52d2 81be 2594 863d 6287 9a3d edd8 82bd
00000300: f468 993f 99e0 06bf a0c6 c6bd c5cf 6c3f
00000310: cf3b 163d d18e aebe f052 833f 772c 85bf
00000320: b798 a5bd e27b f03f e9b0 dcbe c603 3f3f
00000330: 5b74 9e3f 0185 c03f e02d 303c ba85 86bd
00000340: cfc1 b8be 6bb0 8dbe a6df b5be a9f8 bfbe
00000350: 467a bfbe dc8f 99bf 5596 b6be 1071 283f
00000360: d26c b63e b0d1 713f 81a9 b8be 792b 9bbe
00000370: 439d 93bf adfb ad3f 3884 fdbe 38ca 58bf
00000380: e6cd 30be da34 1d3f 1690 0bbe c9a2 053f
00000390: b626 1940 3a24 253c 73fd cc3f 9c02 babe
000003a0: 0547 2a3d ae4e ea3d 050e 35be e627 603c
000003b0: 272a 78be 6035 6cbe 30dc 83be 5698 84be
000003c0: d1c6 a93e a2c9 073e f055 cfbe 19d3 babe
000003d0: 1572 683d e46f 9ebe df7f 7a3f 5f78 6e3f
000003e0: 37e0 37be 3ef9 acbe 848a b3be 8556 47be
000003f0: 4a92 cb3b 9daa d83f a4b0 9cbe 0ab2 013e
-0.3431371 0.051814493 -0.3213286 -0.31867024 1.2556157 -0.3991302 -0.43495816 -0.2111657
1.6438438 -0.3815574 -0.4568152 1.2971573 0.25666946 -0.41373628 -0.11181617 1.9235061
-0.35156074 0.05037744 -0.3608471 -0.89353347 -0.05275384 -0.4010695 -0.43247917 0.008341177
-0.5446367 -0.753276 0.6686368 1.3964913 -0.23042543 -0.24356693 -0.4750764 1.3539727
1.3760366 -0.5988312 -0.36574978 -0.25143299 0.045070805 0.3982543 -0.36263004 1.5336848
-0.2797185 -0.86827874 -0.39111274 1.621479 0.26323262 -0.40825385 1.1144162 -1.0278248
-0.035080895 -0.4187239 1.1081588 0.14051038 -0.38102803 -0.31167147 -0.31466326 -0.35227945
-0.22286671 0.47579217 -0.15073395 -0.18335822 -0.29730597 0.000491038 -0.020500304 0.073153086
0.90361905 -0.5318633 -0.08207831 0.5389545 0.08300855 -0.30097774 0.5663292 -1.3261395
0.047636785 1.7793543 -0.3620834 1.0299966 2.0649247 1.5064862 0.06580336 0.104585566
-0.34058845 -0.0622493 -0.41376606 -0.4115174 -0.35606945 -0.17133102 -0.31904882 0.2903389
0.20053054 1.1715856 -0.42691582 0.078525074 -0.39480636 1.0644895 -0.5013207 -1.3175315
-0.32372198 1.3047751 -0.38503757 0.38974974 2.0892165 0.05171029 1.3963008 -0.4601269
0.014273004 -0.22251521 -0.4014986 0.0017177128 -0.40180704 -0.25834587 -0.34693104 -0.36439168
0.47381964 -0.19398278 -0.30587822 0.2878818 -0.080763936 -0.29208258 1.1396673 0.95777833
0.02425285 -0.3379196 -0.35442507 -0.4292816 0.03378819 1.79337 -0.24553472 -0.075909495
-0.402039 0.021769026 -0.3870209 -0.46323544 0.88198006 -0.27540722 -0.41128272 -0.5892317
1.7900391 -0.36984077 -0.34553033 1.5951325 0.049027883 -0.30866838 -0.6243959 1.9542788
-0.2397276 0.06628375 -0.17589532 0.41625482 0.07728701 -0.15908016 -0.3356261 -0.032642424
-0.33949324 -0.66061544 0.68542695 1.1583736 -0.39556393 -0.4882552 -0.23799285 1.3870015
1.3048377 -0.057162125 -0.3558027 -0.13314207 0.0068327757 0.7416828 -0.31214723 1.6484962
-0.31692728 1.8655292 -0.32402134 1.5546834 -1.225144 -0.58231676 0.8705733 -1.1148443
0.023315132 -0.32888505 1.237114 -1.0003201 -0.27915806 -0.3587485 -0.56037873 -0.42029777
-0.26526454 0.8112944 -0.34227794 -0.27216092 -0.25355774 0.06571225 0.075453535 -0.063890316
1.1985154 -0.5268646 -0.097058535 0.9250453 0.03667813 -0.34093335 1.0259686 -1.0404195
-0.08085769 1.8787806 -0.43103722 0.7461513 1.2379259 1.504059 0.010753125 -0.06568475
-0.36085364 -0.2767366 -0.35522193 -0.374944 -0.37397975 -1.1997027 -0.3566157 0.6579752
0.35629898 0.9446058 -0.3606682 -0.30306605 -1.1532367 1.359243 -0.49514937 -0.8468356
-0.17266044 0.6140877 -0.13629183 0.52201515 2.3929877 0.010079438 1.6014847 -0.36330116
0.041571636 0.11440788 -0.1768113 0.0136813875 -0.2423483 -0.23067236 -0.25753927 -0.25897473
0.33159497 0.1326051 -0.40495253 -0.3648918 0.056749422 -0.3094474 0.97851366 0.9315242
-0.17956625 -0.33783907 -0.35066617 -0.19466598 0.0062125074 1.6927067 -0.30603516 0.12665573

fc3.bias f4 [4]
00000000: 04f5 53be 0350 06be 4d90 623e f908 3e3e
-0.20698935 -0.1311646 0.22125359 0.1855811
